dqn_weights.pt (torch_old, 28417 bytes, 6 tensors)

fc1.weight f4 [64, 37]
00000000: a1c1 5f3d bbd2 8d3d 46bd aabe 469d 87be
00000010: 0285 11be 3dc6 0e3e a6b9 9bbe 9a31 683d
00000020: a986 b1bd 37d2 7abe 9643 8d3b 731b 7cbd
00000030: 7be2 7dbe c4e1 11be 8ade 7bbe 2551 123e
00000040: 726d efbd 9509 89bd fe9f 4dbe 70d2 15bd
00000050: b086 523d e8dc 113e e809 143e 3eb8 2dbe
00000060: b363 213d 1f17 c7bc 3a1c 223e 98d7 0abe
00000070: d057 d1be b969 50bd 2479 29bd 4b6a f13d
00000080: 3708 99bd 2459 47be c1fa 75bd 5f9d 20bd
00000090: 8a33 d5bc 022b 113e f0f9 193e ebf4 e23c
000000a0: 7e34 a03d ffd1 22be 99ac 7e3d 0187 51be
000000b0: 9d3f 363c a933 0e3d af4d 6abe 02f9 9a3c
000000c0: 7897 53bd e644 473e bf82 253e ab43 803e
000000d0: 35d5 eb3d 50a5 3abd ce4d 083a fb24 493e
000000e0: c129 813c 6e51 713d 3a33 1cbe 7c57 0fbe
000000f0: 4ca2 58bd 35bd 81be 2e9d 023d 7477 0c3d
00000100: 4459 16ba e4bb 01be 7089 2dbe 732e 7b3d
00000110: c0f8 1e3e 99d7 bc3d fad3 0f3e 9b74 463e
00000120: 71b0 933d 672a 3f3d 266b 9c3d 66ed f33d
00000130: 24ad df3d 563d 033e ef8a 553e 8c6f 2abf
00000140: c5f2 103e 96cf 833e 7e17 2c3e 8436 69be
00000150: 7a04 ae3c 41f5 5f3d ed70 d0bd 3180 8b3d
00000160: 46ec 73bd ec8e 36be 4e42 093e 2696 043e
00000170: e3df 453e b794 f73d 991a 4dbe 98e8 b6bd
00000180: f2cc 7ebb 542e 2c3e 085a 263e c23b adbe
00000190: acc4 8e3e ed27 143e 7401 413e 05c7 07be
000001a0: 11a6 3bbe 2a2a 26bd fcdb 6dbb 7094 6abd
000001b0: 3c02 a4bd 0bfa c53b dae4 ce3a 0b26 303e
000001c0: a02a 38be 84fc ee3d 85c6 eebd d98b d8be
000001d0: bb30 f4bd 1cea 9bbe c89f dc3d e2eb dd3d
000001e0: d293 92be 0f92 3fbd 342b 4939 4451 2a3d
000001f0: 2ea4 15be ece2 3abc e3ce 85be 0fd3 92be
00000200: f1c9 fe3d d2d9 37be 36f1 e0be 5664 393e
00000210: 03ad 22be 3da1 b0bd fc62 12be c8b7 00bf
00000220: 5a70 d6bd d6cf 243e 22db 0a3e 2124 2ebe
00000230: cfd5 b93c 24f2 3f3d 1240 3bbe c792 7b3e
00000240: e1ab 8abe 23ec d4be 2962 da3d 1cda a33c
00000250: f36e 243c d396 46be 97f6 5cbe 71a5 10be
00000260: 8bec a73d 79df e33d bf5e e73d b2e6 0cbd
00000270: 4f21 5abe a930 97bd 455c 313e f709 1cbe
00000280: f2c2 1abe 8f7c 8fbe 3d22 80bf bcda a7bd
00000290: 114f 7ebc e03d 41be f608 c73d ab14 2c3e
000002a0: ff42 983d 5d90 e0bd 660d 39bd 9ee1 d5bd
000002b0: a6f9 e4bc 2e47 83bd 3923 8d3d c4ed 3b3d
000002c0: a69d 5e3d d041 28bd 76c5 e43d fdb8 a7bd
000002d0: 10ad 01bd d271 a53d d1d5 803c f4ba b23c
000002e0: 90b6 943b ad82 adbd ac3c acbd 2314 86bb
000002f0: 6980 6f3d 4a37 e63d bc1b c63d 4d8c c33e
00000300: 8a18 57be 6558 4fbe 0006 ffbe 9878 32be
00000310: 30ab a03c 193c 45bd 585b 0abe 14a0 963d
00000320: bc3f 6dbd cdb9 aa3d 8674 74bd 7ff7 dbbd
00000330: ad14 6bbd 34d0 913b 5164 053c de93 2a3e
00000340: cb40 f43c 1ded 373e ead6 22be ff80 e4bb
00000350: d516 1d3e afb1 9dbd e997 cc3d 9296 a8bc
00000360: af9f 183e 7412 76be b753 303d ffb3 80be
00000370: 41f3 09be b9a9 3d3d fe2f 49be 4c36 a93b
00000380: 7fe5 acbc bed7 f2bc a15b d8bd dfdb 993c
00000390: 9cfd 8dbe 5d5c e0bd 7b47 a83d 145e a23e
000003a0: 0568 81bd b77c 573d 7b5b 3e3c 2fb2 d93d
000003b0: b550 7c3e 1e30 1bbe 4539 8dbd 1149 74bd
000003c0: d13f 0a3d 0a0e a93d a9a3 27be 32eb 21be
000003d0: 3940 40bc ab3c eb3d b03a cb3e 7187 85be
000003e0: c755 f5bd d152 de3d b980 d5bd 1728 3f3e
000003f0: 74f4 b13c 9acc 2fbe b1f6 a2bd 2c3c 483d
0.05462802 0.06924959 -0.3334753 -0.26487178 -0.14210895 0.1394281 -0.30415076 0.05668793
-0.086682625 -0.24494253 0.0043110354 -0.061549615 -0.24793427 -0.14246279 -0.2459661 0.14288767
-0.11690797 -0.06691281 -0.20080563 -0.036577642 0.05139798 0.14244425 0.14456904 -0.16964814
0.03940172 -0.024303017 0.1583108 -0.13558805 -0.40887308 -0.050882075 -0.041375294 0.11787852
-0.0747227 -0.19467598 -0.06005359 -0.03921258 -0.026025552 0.14176562 0.1503675 0.027704677
0.07822512 -0.1590042 0.06217632 -0.20461656 0.011123565 0.034717236 -0.22881196 0.018917564
-0.051658124 0.19459876 0.16163157 0.25051627 0.115152754 -0.04556781 0.0005199582 0.19643013
0.01576698 0.058915548 -0.15253916 -0.13998216 -0.052889153 -0.25339666 0.03188818 0.034293607
-0.00057353475 -0.12669331 -0.1694696 0.061323594 0.15524578 0.092208095 0.14045706 0.19380419
0.07211388 0.046671297 0.076376244 0.119105145 0.10921696 0.12816367 0.2085378 -0.6657646
0.14155109 0.25744313 0.16805837 -0.22774702 0.021242369 0.05467725 -0.10177789 0.0681156
-0.0595515 -0.17827958 0.134042 0.12947902 0.19323687 0.12088912 -0.20029677 -0.089310825
-0.003887948 0.16814548 0.16245282 -0.33834654 0.27884424 0.14468355 0.1884821 -0.13259514
-0.18325068 -0.040567555 -0.003629445 -0.057270467 -0.08008239 0.0060417703 0.0015784756 0.17202012
-0.1798501 0.11669257 -0.11658958 -0.42294195 -0.11923357 -0.3045205 0.10772663 0.10836007
-0.28628403 -0.04677015 0.00019184948 0.041581407 -0.14613411 -0.011406641 -0.26134405 -0.2867665
0.12440861 -0.17954186 -0.4393403 0.18104681 -0.15886311 -0.08624504 -0.14295572 -0.5028043
-0.10470648 0.16094908 0.13560155 -0.1700597 0.02268496 0.046861783 -0.1828616 0.2456771
-0.27084258 -0.41586408 0.10663254 0.020001464 0.010036218 -0.19393472 -0.21578442 -0.14125611
0.08199414 0.111266084 0.11297368 -0.034399696 -0.21301769 -0.07382328 0.17320354 -0.15238176
-0.15113428 -0.28024718 -1.0010449 -0.08196017 -0.015521781 -0.1887126 0.09718506 0.16804759
0.074346535 -0.10965035 -0.045178793 -0.10443424 -0.027951073 -0.06410061 0.06891484 0.045881048
0.054349564 -0.04107839 0.11170475 -0.081895806 -0.031659186 0.0807835 0.015726956 0.021817662
0.0045383647 -0.0847219 -0.0841001 -0.004091756 0.05847207 0.11241014 0.09673259 0.38192979
-0.21005455 -0.20248564 -0.49809265 -0.17428815 0.019612879 -0.048153017 -0.13511407 0.07354751
-0.05792211 0.0833622 -0.059681438 -0.107405655 -0.057392765 0.0044498686 0.008141593 0.1665797
0.029816052 0.17961545 -0.15902296 -0.0069733853 0.15340741 -0.07699906 0.09989912 -0.02057961
0.14904664 -0.24030477 0.043048587 -0.25137326 -0.134717 0.04630444 -0.19647214 0.0051639434
-0.021105526 -0.02964389 -0.10564352 0.0187816 -0.2773255 -0.10955117 0.08216759 0.317124
-0.06318668 0.05260917 0.01161849 0.10629689 0.24640162 -0.15155074 -0.06895689 -0.059639994
0.033752266 0.08254631 -0.16371025 -0.15812376 -0.011734062 0.11486181 0.39693213 -0.26079896
-0.11979251 0.1085564 -0.104249425 0.18667637 0.02172301 -0.17167893 -0.07957209 0.04888551

fc1.bias f4 [64]
00000000: 2171 a73d d9db 7d3c 5c8b 1cbe db34 97bd
00000010: 6b50 433e 814f 92bd 4db3 2fbe beb2 a43d
00000020: b7bd de3d 5bc2 55be bccb 093e 22d1 333e
00000030: eecd 463e c904 323e 979b a2bd 3716 21bd
00000040: e513 513b 1dcf 663d d209 f53c 5073 47be
00000050: 3a6d 8dbd df86 103d e849 f03b fbbc 92bd
00000060: ca0d 21be c494 7a3d 891b 58bd f70f 43be
00000070: b9c4 673d c772 0c3e 517e dcbd 3536 28be
00000080: 17b5 443e 9b17 723c 71b3 c9bd 172a cd3c
00000090: d259 a2bd 78cd f0bb 0469 27bc d512 a9bd
000000a0: 0187 49bd 3b2c 0ebd 8222 3bbe ccf2 d63d
000000b0: 399e 3a3c 310f e7bd cbb8 df3d ba21 4abe
000000c0: f31f 00be be68 8f3d a4da 04be fc01 033e
000000d0: 73e7 50bd 0884 48bd ba5c 44be 8e07 383d
000000e0: 1a49 c23d 4def dabd 3110 97bd 2401 debd
000000f0: 0976 2ebb 488e 1e3e 93a9 ee3d 93ef 4a3d
0.081758745 0.01549431 -0.15287536 -0.07383128 0.19073646 -0.071440704 -0.17158242 0.08041905
0.10876029 -0.20874922 0.13456625 0.17560247 0.19414493 0.17384638 -0.07939833 -0.039327826
0.0031902727 0.056349862 0.02991191 -0.19477582 -0.06905599 0.035284873 0.007333029 -0.071649514
-0.15727916 0.06117703 -0.052760635 -0.19049059 0.056584094 0.13715659 -0.107662804 -0.16426928
0.19209705 0.014776136 -0.09848679 0.025044484 -0.07927288 -0.0073487125 -0.010217909 -0.08255545
-0.049201015 -0.03471015 -0.18274882 0.104955286 0.011390262 -0.112821944 0.10923918 -0.19739428
-0.12512188 0.070024 -0.1297403 0.12793726 -0.051001977 -0.04895404 -0.19175997 0.04492908
0.09486599 -0.10690174 -0.07376135 -0.10840061 -0.0026620647 0.15483963 0.116534375 0.049544882

fc2.weight f4 [64, 64]
00000000: f843 723e 3fb0 f93c 1dfb 383e 2c0f 053e
00000010: a78f 5e3e bb35 c5bd ef93 acbd 8950 81bd
00000020: 694f 4dbd 6537 e93d 5ddd 073d 7e0c 65be
00000030: 844d 88bd 6314 7e3d 52d5 e6bd d135 8b3c
00000040: 570e eb3b ba85 aabe 2d65 8ebd e130 093d
00000050: 1e23 17be 40b9 8dbe e658 8a3e 36ac b9bd
00000060: 2139 6ebe 05c4 993a 1bfc a43e 8d5b 8e3d
00000070: 37a8 d0bb dcac 293d 1942 e93d 09f5 49bd
00000080: dc4d 033c d072 a53e ede9 a4bd fed3 423d
00000090: fe0a 02be 84e6 a83e 87e0 be3e 482e 7fbc
000000a0: 3258 d3be b040 2cbc 518d b03e 9aec 9cbc
000000b0: bd7a b43d 775e 8cbe 4945 22be 3631 2e3e
000000c0: 493f 85bd 01af 533e 9f3d 563d 6676 a6bd
000000d0: 6d3d c9bc 1bca e33e 440b abbd 14cd c63d
000000e0: 9c88 cabd 64d2 2dbd cf00 a6be c824 7fbc
000000f0: 29ac 59bc 67ce a03d 3ebf 79be 655e 57be
00000100: 14ff 313e b4d0 863d 71d3 9bbe d5d1 3b3e
00000110: 47a4 09bd 8a30 7e3d b5c5 63be bd4d 30be
00000120: dce2 1dbe cdb2 fbbd 04c0 e4bd 0299 aa3e
00000130: 5d90 a1bd 9ed2 833d eb5e 4fbd 7234 093e
00000140: cdc3 01be 0063 24be b5b2 1f3d f210 0d3b
00000150: 7ca4 ef3d c158 0bbe ebeb 2d3e a311 e2bd
00000160: c25f 46be c0b8 463e 54d1 89be 2885 09be
00000170: bb9f 413d fadb 03be 29b8 0ebd 4845 5cbe
00000180: e001 13be 3ffd 77bd 2f97 8cbd 0891 063e
00000190: 9aef 18be 9210 533e b8b9 bcbd f25d e33a
000001a0: 1711 c3be 3a86 093e c4c0 db3d f970 79bd
000001b0: 918b cbbd 314e 79be fd8f 23be dded 33bd
000001c0: 9915 b2bd a591 c93d 0326 c0bd a9cb 843d
000001d0: 92f0 c6bd f65a f23e 0ef9 76bd 4b95 053d
000001e0: 051e f7bd 2fcb 75bd 9ce4 953e 8d98 0bbd
000001f0: d7f3 6dbd 9821 513d 5198 a73d b963 67be
00000200: 026a 86bc 14c6 b5bd 3fca 043e 9da7 f8bd
00000210: 825f d2bd b1c9 f43c 7fbf abbd a066 afbc
00000220: 4ba8 bdbd ab06 4b3a c38a 083e 9043 29be
00000230: 38e7 fd3d b35a bf3d c7c7 d7be f2d3 d33d
00000240: d1f6 2bbe fafb b9bc 43c1 163e 6698 12bd
00000250: cd26 3bbe de8a b13c 1914 38be ecee 47be
00000260: dc1e c43c cbbe b23d 590c ab3d 0ebc 1cbe
00000270: 3b13 213e 1d83 483d 8c91 87be 052b 35be
00000280: 66df a7be 2898 1dbe a6ca 64bd 7a2c be3d
00000290: a2dc b5bc 8a19 d33d cb93 493e 39cd 80be
000002a0: aec5 b23e 9c7a c1bc d879 713c 218d 3d3c
000002b0: 2dab 03be 25d5 363d 03bb b83b b240 abbd
000002c0: a3a5 47be 2ce5 48be 85de 14be 42a3 23bd
000002d0: a51b 03be 9b30 733e d583 a1bd 8ad5 29be
000002e0: 1fbd 733e f05f 29be 35a1 acbd 5b36 1e3e
000002f0: 3ca1 d9bc d4c3 07be f40c 233e f6a9 7a3d
00000300: 4ce2 adbd 621d 0e3d 5852 333d 0e25 edbd
00000310: 0fa6 d7bd 2f33 ffbd 9b2d 1dbe 170b 2bbd
00000320: 6cda 5cbd 1c23 9dbd 2dfc 3fbe e905 2fbd
00000330: 7948 ab3b 64f0 5fbd 22e8 a1bc cfa7 c9bd
00000340: ac8c 243d bff9 893b b523 c0bd 45a6 d6bd
00000350: d237 823d 8948 793d 7a05 f13c b666 3f3f
00000360: f1ce 053f e494 7fbc 7b74 8c3d a247 90bc
00000370: 2075 d53d 610a afbd ce7e 98bd 5ac8 c43d
00000380: 4714 9ebd 9a78 173c d92b f63c 7b7b 083e
00000390: fc2a 6b3c 11c0 a5be 58cb d13d e0e1 3e3d
000003a0: 70e1 ddbd 2a96 17be 44e8 36bb be6d 8cbd
000003b0: 7c95 2abd 6a10 53bc 406f 563d f4f7 c23d
000003c0: ac0c 0a3d dd51 fe3d 751c f2bd 5f8a 9e3c
000003d0: bf8c 613d a3c7 12bf 5258 4cbe 4fde 103d
000003e0: 10fc 363e 7579 4ebe cbd9 7ebd abd0 4fbe
000003f0: 2f7f bdbc bc16 573d 4b94 e13c 8c65 8c3d
0.2365874 0.030479548 0.18064542 0.12994069 0.21734487 -0.09629389 -0.084266536 -0.06314189
-0.05012456 0.11387519 0.033170093 -0.22368047 -0.0665541 0.06203116 -0.11271156 0.016993435
0.0071733403 -0.3330515 -0.069528915 0.03349388 -0.1475949 -0.27680397 0.2702095 -0.0906605
-0.2326398 0.0011731392 0.3222359 0.06951056 -0.006367709 0.041424617 0.1138956 -0.04930595
0.008014169 0.32314157 -0.0805243 0.047565453 -0.12699506 0.3298837 0.37280676 -0.015574999
-0.41278225 -0.01051347 0.34482816 -0.01915579 0.08812473 -0.2741582 -0.15846743 0.1701096
-0.06506211 0.20672227 0.05230486 -0.081280515 -0.024565423 0.44490132 -0.08351758 0.09707084
-0.098893374 -0.042436972 -0.32422492 -0.015572734 -0.013285675 0.07851868 -0.2438936 -0.21032102
0.17382461 0.06582776 -0.30434754 0.18341763 -0.033603933 0.06205801 -0.22243388 -0.17217155
-0.15418571 -0.12289963 -0.111694366 0.3331986 -0.07888863 0.064366564 -0.05062763 0.13398913
-0.12672348 -0.1605339 0.038988788 0.0021524993 0.11701295 -0.13608076 0.16984527 -0.1103852
-0.19372466 0.19406414 -0.26917517 -0.13429701 0.04727147 -0.12876883 -0.034843598 -0.21510804
-0.14356184 -0.06054425 -0.068647735 0.13141263 -0.1493515 0.2061179 -0.092151105 0.0017346723
-0.38098976 0.1343011 0.107301265 -0.060898755 -0.099387296 -0.24346234 -0.15972896 -0.043928016
-0.08695526 0.098422326 -0.0938225 0.064841576 -0.09713854 0.47335023 -0.06029611 0.03261308
-0.12066273 -0.060008224 0.29275978 -0.03408103 -0.058093872 0.051057428 0.08183349 -0.22596635
-0.01640797 -0.08875671 0.12967776 -0.12141345 -0.10272123 0.02988133 -0.08386134 -0.02141124
-0.09260615 0.0007744829 0.13334183 -0.1652968 0.12397617 0.093434714 -0.42144606 0.1034316
-0.16793372 -0.02270316 0.14722161 -0.03578987 -0.1827652 0.021672662 -0.17976417 -0.19524735
0.023940496 0.08727797 0.083519645 -0.15306112 0.15729992 0.048953164 -0.2647823 -0.17692192
-0.32787627 -0.15390074 -0.055857323 0.09285827 -0.022199932 0.103076056 0.19685285 -0.25156572
0.34916443 -0.023618035 0.0147385225 0.011569292 -0.12858267 0.044636864 0.005637528 -0.08361949
-0.19496779 -0.19618672 -0.1453801 -0.039950617 -0.12803514 0.2374901 -0.07886473 -0.16585365
0.23802613 -0.16540504 -0.08429185 0.15450422 -0.02656614 -0.13258296 0.1592291 0.061197244
-0.08490428 0.03469599 0.0437797 -0.11579333 -0.1052972 -0.12460934 -0.15349428 -0.041758623
-0.05391924 -0.07672712 -0.18748541 -0.042730246 0.0052271453 -0.054672614 -0.01976401 -0.0984646
0.040173218 0.0042106803 -0.093818106 -0.10480932 0.06358303 0.06086019 0.029421557 0.747661
0.5226889 -0.015599463 0.068581544 -0.017612282 0.104227304 -0.085469015 -0.07446061 0.096085265
-0.07718711 0.009245062 0.030050205 0.13328354 0.01435351 -0.32373098 0.10243863 0.04660213
-0.108340144 -0.14803377 -0.0027909437 -0.06856869 -0.041646466 -0.012882331 0.05235219 0.095199496
0.03370349 0.12417958 -0.11821834 0.01935309 0.055065867 -0.5733587 -0.19955567 0.03536826
0.17869592 -0.2016352 -0.062219422 -0.20294444 -0.023131935 0.052511916 0.027536532 0.06855306

fc2.bias f4 [64]
00000000: d413 60bd 2f8f 343d 85d2 7c3d a022 0c3d
00000010: 6774 843e 8018 1bbe 7070 9cbd 4c26 8c3d
00000020: e78d 7e3e 0e20 d13e 8fec 24be 0d8b 433e
00000030: fbd1 163e 6250 bcbd 9e15 e3bd 8f33 043d
00000040: 9f9d 043e 02b2 87bd 0f04 d0bd 91e6 133e
00000050: 459c 833e 1565 f93e 8eb7 32be 600b e7bd
00000060: 96e9 afbd f61f 16be 30ff 773d ea1d 11bc
00000070: 4bfb fcbd 059c 803d 6ba8 cc3d d8c1 da3d
00000080: a35e 0d3c bf5b 2d3d bd38 84bc c139 c9bd
00000090: 1253 a5bd b0a8 e5bd 19ae c33d efbc 1e3d
000000a0: ffd2 31be 5159 e63e 3847 b13e ba2f 92bd
000000b0: 7560 a43d 738c d5bd c866 8d3e e550 23be
000000c0: f68d a03c 83d2 b5bd acd0 0c3d 0b3c cc3e
000000d0: 5056 0f3d d8d0 71be a119 bc3d c25c e0bd
000000e0: 64ec 0fbe 8e44 05be 6a5c 6c3d d679 c63c
000000f0: 4195 88bd ca9e 8d3e 3cd4 323d 67bb 1ebe
-0.05470641 0.044081863 0.061724205 0.03421271 0.25870058 -0.15146065 -0.07638633 0.06843242
0.24858819 0.40844768 -0.16105865 0.19096012 0.14728539 -0.09195019 -0.110881075 0.032275733
0.12950753 -0.06625749 -0.10157024 0.14443423 0.25705162 0.48709932 -0.17452833 -0.112814665
-0.08589475 -0.1466063 0.0605461 -0.00885723 -0.12352618 0.06279758 0.09993061 0.10681504
0.00862852 0.042323824 -0.016140336 -0.09825469 -0.08072485 -0.11213815 0.09554691 0.0387544
-0.17365645 0.44990018 0.34624648 -0.07138009 0.0802621 -0.10427179 0.27617478 -0.15948828
0.019598942 -0.088780425 0.034378693 0.3988956 0.034994423 -0.23614824 0.09184576 -0.10955192
-0.1405502 -0.13014433 0.05770532 0.024228018 -0.06669093 0.2766021 0.043659434 -0.15501176

fc3.weight f4 [4, 64]
00000000: 37b1 853e 935f 2b3e 3002 e03d d1e1 3c3d
00000010: ca97 2d3e 5b87 3b3e 2a91 ed3e cf59 0fbe
00000020: fafd f93d 781d ea3d a68c 42be 8044 293e
00000030: 96e5 db3e 95e0 0e3e 9f1b 08bd 9607 41bd
00000040: 304c 353e df3e 5dbe db72 a0bd 794f 1d3e
00000050: 8a3e c03d f761 093e 598e 7e3d 5942 58be
00000060: 7e42 393e 22af 68be 6603 e9be 30f9 8e3c
00000070: 0765 0c3d 1b38 1e3f 1490 62be 8645 053e
00000080: 0bdc 003f 84e7 0f3e ec98 f23d 17c1 663c
00000090: d90f 513e 97e6 a9be c635 313e 7cb1 b43e
000000a0: 7572 8a3e aa82 183e ca46 fe3d 52d1 003e
000000b0: 1691 4b3e 6685 fc3d eb39 3f3e 84e0 4f3e
000000c0: 2615 5fbd a626 ab3d b842 2f3e c692 193e
000000d0: 1fe9 a23e e072 2ebe 96f4 e33d d724 b6bd
000000e0: 5a42 fcbe 254e e0bd 04c5 223d ea8f 433e
000000f0: 63d7 25be ce23 283e 01d4 82bd bf21 313e
00000100: 34b1 703e 57b0 3a3e a90a 943e c653 303e
00000110: 3d26 263e 7182 a53e e8d2 ac3e 42e0 1d3d
00000120: bc22 e43d 020c 033e beae 22be 7293 b43d
00000130: a884 a13e 3d5d a93e 60de a5bc 27ee 4b3d
00000140: 257a 3e3e ca78 f43d b73c 88be e79e 1b3e
00000150: 9ec4 cc3d 66b8 5d3e 2f00 87bd 0b45 b4bd
00000160: 641c 3c3e 1d0f f1bd e3c6 303e adb5 ddbe
00000170: f248 953c a429 d73e 3b8f 10bc 4928 3d3e
00000180: 0f5f 9b3e 441e 563d 06f2 3c3e 2499 73bd
00000190: f6f1 533e c261 93be 3424 0c3e 5651 843e
000001a0: 8c89 41be c339 123e 2284 603d e6ca 983e
000001b0: 1809 9c3e 806a bdbd 739c 223e 3018 1a3f
000001c0: 5819 283e 507e a33d 6a29 553e 51e8 043d
000001d0: a3ea 863e d352 d0ba 45e0 173e 7cfa 9a3d
000001e0: 3261 4bbb 9725 a6be d2dc 473e 693a e13d
000001f0: 807b 5cbe 3421 883d 75e3 e3bd 49d6 6ebd
00000200: e564 ac3e 0d64 843e a1f4 803e 378d ed3d
00000210: b613 483e fbb8 bc3e 40df e83e 5e5d 1c3e
00000220: 6065 873d 250d ef3d 863d 94be a6b1 fc3e
00000230: 4ca4 913e a0bd c3be 665c 98bd 98d8 563e
00000240: b81c 2ebd 45dc 95be f7c5 ea3d cf98 063e
00000250: dc58 fd3d 0d93 583e 040b 34bd 24fa b43d
00000260: 6c2d 043f c995 e53b ba85 283c 923a e63b
00000270: aac8 b63d 35c1 de3e 2dc9 15be 6ffd 693c
00000280: b252 79bd 1d05 f9bd 134b a13e 8f4f ce3d
00000290: 05a7 a43e 3dad 7bbe 5783 923e f7af 1b3e
000002a0: 9e6d 30be 225c 2b3e fb05 213e 740b 57be
000002b0: b18c 253e b3c0 123c 3750 353e b20e 1c3f
000002c0: 6159 b83d fdb7 c7bd ae20 153e 255e 593e
000002d0: e191 35bc af0d bc3d 5706 293e 2854 833d
000002e0: 7b54 9dbd 705d f0be c22b cf3d 7ebe d23d
000002f0: 2449 b8be 443e d23d d2db e0be 4b9b 8fbd
00000300: 21b0 a53e bcd0 bb3e 6df5 d83d 6733 ea3e
00000310: 38ba db3d 7490 2ebe ca7b a93e cf9b 9b3d
00000320: e3fd 003e c95e 403e f84e 5fbd 337d 99bc
00000330: 90f9 ca3e 4667 0d3d 7726 be3c bade 61bb
00000340: 72f1 793e 91b5 5c3e 0fca 40be 7dc8 023e
00000350: b09e 513d 120d 7f3e f2aa 88be a043 2e3e
00000360: 2fb9 1d3e 264e eabe e885 2dbe bfc4 79be
00000370: 5ed7 323e b322 8d3e 73c6 c9be 0afd c23d
00000380: aab8 a43e 84ce d03d 0246 b63e 980f e0b8
00000390: 9376 ecbc e73c 11bd d1d6 bc3e 1075 843e
000003a0: bb87 63be 4f58 3b3e 8b49 fd3d bff5 a7bd
000003b0: 9167 e83e 0dae 00be 2ef4 ca3d 2a03 d0bd
000003c0: 5af2 98bd c6b8 973d 9c5c 683e c171 323e
000003d0: 8760 9a3d 0396 53be 89ec 1f3e 5438 613e
000003e0: c2cf 38be 99e3 c63d 6335 98be 8d6a a0bd
000003f0: 6479 91be 875c 953d 75e3 e3be 9f74 2a3e
0.26111767 0.16735677 0.10937917 0.046113793 0.16952434 0.18313353 0.46399814 -0.13999103
0.12206645 0.11431402 -0.18998966 0.16530037 0.42948598 0.13952859 -0.033229467 -0.047126375
0.17704844 -0.21606015 -0.07834407 0.15362348 0.093869284 0.13416277 0.062147472 -0.2111906
0.18091771 -0.22723058 -0.45510405 0.017452806 0.034276035 0.6180436 -0.22125274 0.13014802
0.5033576 0.1405316 0.11845574 0.014084122 0.20416202 -0.3318374 0.17305669 0.3529166
0.2704045 0.14893594 0.12415846 0.1257985 0.19879565 0.12330131 0.18674438 0.2030049
-0.054463528 0.08356981 0.17115295 0.14997396 0.31818482 -0.17036009 0.111306354 -0.088937454
-0.49269372 -0.10952405 0.03973867 0.19097868 -0.16195445 0.16419908 -0.06388093 0.1729803
0.23505098 0.18231331 0.28914383 0.17219457 0.16225524 0.3232608 0.3375466 0.038543947
0.111394376 0.1279755 -0.15886971 0.088171855 0.3154652 0.33078948 -0.020247638 0.049787667
0.18601282 0.11937101 -0.26608822 0.15197335 0.09998439 0.21652374 -0.06591832 -0.088022314
0.18370205 -0.11770461 0.1726337 -0.4330267 0.01822326 0.42023957 -0.008823211 0.18472399
0.3034596 0.052274957 0.184517 -0.05947222 0.2069777 -0.2878552 0.13685685 0.25843304
-0.18900126 0.14279847 0.05481351 0.298423 0.30475688 -0.09248829 0.15879993 0.6019316
0.16415918 0.079830766 0.2081658 0.032448117 0.2635089 -0.0015893824 0.14831646 0.07567307
-0.0031033275 -0.32450554 0.1951783 0.10997469 -0.21531487 0.06646958 -0.11127368 -0.058309827
0.33670726 0.25857583 0.25186637 0.115992 0.19538769 0.3685988 0.45482826 0.15269992
0.066111326 0.11672429 -0.2895319 0.49354285 0.2844566 -0.3823061 -0.074394986 0.20981061
-0.042507857 -0.29269615 0.1146354 0.1314423 0.12370464 0.21149845 -0.043955818 0.08836773
0.5163181 0.007006381 0.010285789 0.007026025 0.089249924 0.4350678 -0.14627524 0.014281615
-0.06086988 -0.121591784 0.3150259 0.10073768 0.32158676 -0.24577804 0.2861583 0.15203844
-0.17229316 0.16734365 0.15724938 -0.21000463 0.16166951 0.008957076 0.17706381 0.60959923
0.09001423 -0.0975189 0.14563248 0.2122732 -0.0110821435 0.091822974 0.16506325 0.06412536
-0.07682129 -0.46946287 0.10115768 0.1029024 -0.35993302 0.102657825 -0.4391771 -0.07012042
0.32360938 0.3668269 0.10593686 0.45742342 0.10728878 -0.17047292 0.33102256 0.075980775
0.1259685 0.18786158 -0.05451867 -0.018736457 0.39643526 0.034522317 0.0232117 -0.003446503
0.2440851 0.21553637 -0.18827079 0.12771793 0.051176727 0.2490733 -0.2669292 0.17017984
0.15402673 -0.45762748 -0.16945612 -0.24391459 0.17464969 0.27565536 -0.39409217 0.095209196
0.32172137 0.1019564 0.35600287 -0.00010684057 -0.028865134 -0.03545847 0.36882642 0.25870562
-0.22219746 0.18295406 0.12367543 -0.08201169 0.45391515 -0.12566395 0.09909855 -0.101568535
-0.074681 0.074082896 0.22691578 0.17426206 0.075379424 -0.20662694 0.15617575 0.21994144
-0.18048003 0.097113796 -0.2972823 -0.07832823 -0.28412926 0.07293039 -0.44509473 0.1664605

fc3.bias f4 [4]
00000000: 2132 973e 2a7e 7e3e 29e7 223e f72a 3a3e
0.29530433 0.24852815 0.15908493 0.18180452
